GNN/model/gnn_model_best.pth (torch, 2761 bytes, 4 tensors)

conv1.bias f4 [32]
00000000: e15c 8f3d 1b74 4cbd 3b36 3e3d 003b 7fbd
00000010: 4ee6 94bd 6367 8ebd 08a1 df3d 31b6 4abd
00000020: 5928 bd3c 9b09 ec3d 869a bd3c 344f 65bb
00000030: c361 073d 3938 ae3c 7835 86bd b3d8 f73d
00000040: 056d d43a 067d e63d 1881 7cbd 28e7 0d3d
00000050: 93b2 9f3d 1458 033e 0551 e13d f5ba d33d
00000060: 590f 2cbd a0c0 763d a9bd 093e 4f02 e53d
00000070: da96 8d3d 25bf e03d f60c 97bd 515c 94bd
0.07000137 -0.049915414 0.046438437 -0.062312126 -0.0727049 -0.06953313 0.10919386 -0.049490158
0.023090528 0.115252696 0.023144972 -0.0034989836 0.033052217 0.021267043 -0.06553167 0.12101879
0.0016206807 0.11254315 -0.06164655 0.034644276 0.07797732 0.12826568 0.110017814 0.103383936
-0.042006824 0.060242295 0.13451256 0.11182081 0.06913538 0.10973958 -0.07375519 -0.072441705

conv1.lin.weight f4 [32, 1]
00000000: a89d 993e 64e8 79be 0cc3 833e 1720 013e
00000010: 3b75 693e 5c7b 81be 56c7 ce3e 931d 18be
00000020: f8e6 333e 3449 013f f178 abbd a5d1 1238
00000030: fda1 02be f015 c0be 4aa3 083e 3e28 0abf
00000040: 64b6 883e 3eed d63e a7fa ad3e 6a40 06be
00000050: d120 dabe b2c0 403e e0dd a93e 15f5 05bf
00000060: b7f8 2dbd fb8f 9fbe 6b1e 1fbe af26 a1be
00000070: f69e 73be 115b 71be 1578 a7be 8a1b 8c3e
0.30003095 -0.24405056 0.25734746 0.12609898 0.22798626 -0.25289428 0.40386456 -0.14855032
0.17568576 0.50502324 -0.08372677 3.500436e-05 -0.12757106 -0.37516737 0.1334354 -0.53967655
0.26701653 0.41977876 0.33980295 -0.1311051 -0.42603162 0.18823507 0.3317709 -0.5232709
-0.04247352 -0.31164536 -0.15538947 -0.31474826 -0.23791108 -0.23569895 -0.32708803 0.2736476

conv2.bias f4 [3]
00000000: 7569 c73d 0a34 4abd 339b a5bd
0.09736911 -0.049366035 -0.080862425

conv2.lin.weight f4 [3, 32]
00000000: 6d2c e73e c576 a53c dbce 573d 854a cbbd
00000010: fbdb 96be 4ed3 a4be d90a 853e 3f8c 17be
00000020: b54b 2dbe f046 923d 7d4a fbbc c280 00be
00000030: 4c16 023e 7e06 5e3c 9948 94bd 540f b3bd
00000040: 9b45 7cbe 2dda e73e 4997 a5bd 4f44 643e
00000050: c89d 14bd a15f 213e 2660 fd3e f6a6 993e
00000060: dbe5 a1be 2f2b 8c3e b356 093f 76fb 673e
00000070: 18e8 c83e 05f4 073f 2384 9b3c da8c 2a3e
00000080: 0420 adbe b6b1 01be 3bee 833e cd9c 343e
00000090: b24c 9abe eb6a bebe 8736 abbe 961a e5be
000000a0: eaaf babe 8b88 1cbe 3079 673e 41ff 7d3d
000000b0: 16d1 bcbe 8e13 c3be 170a 2e3e e071 b9be
000000c0: 5f69 c3bd c1af 163e 13ef 6ebe ce0b c9bd
000000d0: 4901 b5bd 8611 22be 6e94 86be 2559 d8be
000000e0: 667a b6be 71a2 8cbe 764e a73e a70a 84be
000000f0: dee4 aabe 8e78 213d 1533 963d 9b4f 3f3e
00000100: 9be0 673e c721 233e e2ec fcbe 9e4c a0bc
00000110: 51d2 3d3e 9d6a d7bd 9f9d aabe 186c a83e
00000120: df6b 73be 9f57 a5be 5c9e ecbe bcec 843c
00000130: a268 b03d 4489 c23b c2c4 cd3c cd91 d0be
00000140: 7899 ecbe 2030 a7bd 4121 9d3e 04f5 103e
00000150: 8baf a9be 8767 22be 9d3f cbbe 0075 95be
00000160: 11a9 2e3d 39f5 073e 3abe 633e 2a5e f5be
00000170: 5dc8 373e 3e7f cabe d1df b13d 7934 913e
0.45151082 0.020198235 0.052687507 -0.09926323 -0.29464707 -0.32192463 0.2598484 -0.14799593
-0.16923411 0.071424365 -0.030675167 -0.12549117 0.12703818 0.013551353 -0.072404094 -0.08743158
-0.24635927 0.45283642 -0.08085496 0.22291683 -0.036283284 0.15759136 0.49487418 0.30010194
-0.31620678 0.27376696 0.5364792 0.22654518 0.39239573 0.5310672 0.018983906 0.16655293
-0.33813488 -0.12665448 0.25767693 0.1763794 -0.3013664 -0.37190947 -0.3344004 -0.44746846
-0.36462337 -0.15286462 0.22604823 0.062011007 -0.3687827 -0.38100857 0.16996036 -0.36219692
-0.09541582 0.14715482 -0.23333387 -0.09816705 -0.08838136 -0.15826997 -0.26285118 -0.42255512
-0.35640258 -0.27467683 0.32677048 -0.25789377 -0.33377737 0.03942161 0.07333962 0.18682711
0.22644274 0.15930854 -0.49399477 -0.019567784 0.1853726 -0.10518382 -0.3332338 0.3289497
-0.23771618 -0.32293412 -0.4621457 0.016226165 0.08613707 0.0059367735 0.025118235 -0.40736237
-0.46210837 -0.08163476 0.30689433 0.14155966 -0.3314174 -0.15859805 -0.3969697 -0.29190826
0.042641703 0.13277139 0.22240534 -0.47923404 0.17947526 -0.39550203 0.08685268 0.28360346
